model/model.pth (torch, 17216 bytes, 4 tensors)

linear1.weight f4 [256, 11]
0	0xbe25ac95	-0.16179116
1	0xbe736d9d	-0.23772283
2	0xbd70458f	-0.058660086
3	0xbe88046d	-0.26565877
4	0x3e10d3d0	0.141433
5	0x3df86187	0.12127977
6	0xbba4cdde	-0.005029424
7	0xbe9315c0	-0.2872753
8	0x3e310673	0.17287616
9	0xbe40fdab	-0.18846767
10	0xbd946751	-0.072462685
11	0xbea9f08b	-0.33191332
12	0x3e709593	0.23494558
13	0x3e5b928d	0.21442623
14	0xbd85c872	-0.065323725
15	0x3df5f681	0.120099075
16	0x3da0fee3	0.07861116
17	0x3e7859e4	0.2425304
18	0x3e825e52	0.25462586
19	0x3d24db98	0.040248483
20	0xbe8c43f4	-0.27395594
21	0x3dc996ef	0.098432414
22	0x3d158510	0.03650385
23	0x3e0059f3	0.12534313
24	0x3f08e09c	0.53467727
25	0xbe10524a	-0.14093891
26	0x3dffa7c0	0.12483168
27	0x3e08a3ef	0.13343786
28	0xbd9d51d5	-0.07681624
29	0xbdb9e50e	-0.09076892
30	0x3e478565	0.1948448
31	0x3e18e170	0.14929748
32	0x3e5be453	0.21473818
33	0x3dbe043f	0.09278154
34	0x3df67906	0.12034802
35	0xbdee2cfb	-0.11629673
36	0x3e477052	0.1947644
37	0x3d6f61a7	0.058442738
38	0xbe801f41	-0.25023845
39	0x3e7701ac	0.24121732
40	0xbe070d4a	-0.13188663
41	0x3e22b1c9	0.15888132
42	0xbeb6a837	-0.35675213
43	0xbea0a5b7	-0.3137643
44	0x3e83cc4e	0.2574181
45	0xbdd1f0b4	-0.102509886
46	0xbe04ffe3	-0.12988238
47	0xbe624ae2	-0.22098878
48	0xbdcf3e13	-0.101192616
49	0x3e5e1c11	0.21690394
50	0x3e65e382	0.22450069
51	0xbe6770d9	-0.22601642
52	0x3e70b6fb	0.23507302
53	0x3e24d2cd	0.16096039
54	0x3d5b51e6	0.0535449
55	0xbdc8d5ee	-0.09806429
56	0x3ec521ef	0.38502452
57	0xbd9192c9	-0.07108075
58	0xbe3dd200	-0.1853714
59	0xbde45fa9	-0.11151058
60	0x3e1e2ed5	0.15447553
61	0xbe41bc9f	-0.1891961
62	0xbe0786c8	-0.13235009
63	0xbe6c67fa	-0.23086539
64	0xbd4fe8fc	-0.0507593
65	0xbe55d710	-0.20882821
66	0x3eb56bf9	0.3543394
67	0xbea12bce	-0.31478733
68	0xbdaeea9b	-0.08540841
69	0xbd30f6f7	-0.043204274
70	0xbe09a0d3	-0.13440256
71	0x3dbf92a1	0.09354139
72	0x3e0016e6	0.12508735
73	0x3e1fa9d2	0.15592125
74	0x3e28248a	0.16420189
75	0xbe65cd04	-0.22441489
76	0xbe99da9e	-0.30049604
77	0x3d2dd08e	0.04243522
78	0x3c32cb01	0.010912658
79	0x3d9312cd	0.0718132
80	0x3e06e547	0.131734
81	0x3d6212e2	0.05519379
82	0x3d9c63e0	0.07636237
83	0xbd44c809	-0.04804233
84	0x3e77c6f6	0.24196991
85	0x3c18b99a	0.009321595
86	0x3d2c677d	0.04209088
87	0x3da9e30d	0.082952596
88	0xbec24862	-0.3794585
89	0x3e80c74e	0.25152057
90	0xbe79f7c2	-0.24410918
91	0xbe149d48	-0.14513123
92	0x3d61938c	0.055072352
93	0x3e76e514	0.24110824
94	0x3e75cf28	0.24004805
95	0x3e8cff3d	0.2753848
96	0x3e8ccae6	0.2749855
97	0x3e435295	0.19074471
98	0x3ca429d8	0.020039484
99	0x3e1d6639	0.15371026
100	0x3e601c90	0.21885896
101	0xbc345eba	-0.011008913
102	0x3d48294f	0.04886752
103	0x3e8e9eb4	0.27855456
104	0x3b6665b3	0.0035155832
105	0x3e559a91	0.20859744
106	0xbe1c058b	-0.1523649
107	0x3e2048ee	0.1565282
108	0xbdcc7552	-0.099833146
109	0x3e87c011	0.26513723
110	0x3e0e35b3	0.13887672
111	0x3eb42f7f	0.35192487
112	0x3e2b88c2	0.16751388
113	0xbd8db1ce	-0.06918679
114	0xbe7b40de	-0.24536464
115	0x3e0d9c7d	0.13829227
116	0xbe94622b	-0.28981146
117	0x3c00a4ba	0.007851774
118	0xbd9f2c79	-0.07772154
119	0x3cfe3c4a	0.031034607
120	0x3e178b1a	0.14799157
121	0x3e38850a	0.180195
122	0x3c6334a5	0.013867532
123	0x3e7ad2f6	0.24494538
124	0xbe41626f	-0.18885206
125	0xbe4af562	-0.19820169
126	0x3e910a80	0.28328323
127	0xbc626854	-0.013818819
128	0xbe399e3a	-0.18126765
129	0x3db466e0	0.08808684
130	0xbe6b3d49	-0.22972597
131	0x3df8c25e	0.121464476
132	0x3dbb4d1b	0.09145566
133	0xbdaeefe3	-0.085418485
134	0x3ec29e21	0.38011268
135	0xbd809939	-0.06279225
136	0x3e5c735f	0.21528386
137	0x3ca23376	0.01979993
138	0x3e083f0e	0.13305303
139	0x3e02bde0	0.12767744
140	0x3e10598b	0.14096658
141	0x3d535330	0.051593006
142	0xbe22738e	-0.15864393
143	0x3e5944a6	0.21217594
144	0xbe35a800	-0.17739868
145	0xbd08f85e	-0.033439986
146	0x3dd0d7f6	0.10197441
147	0xbdbc154d	-0.0918375
148	0x3e1e90b1	0.15484883
149	0x3e448ddb	0.19194739
150	0xbe3f80a3	-0.18701415
151	0x3e8ec896	0.2788741
152	0xbd4d4376	-0.050113164
153	0x3e6cf94d	0.23141976
154	0xbe3f2cec	-0.1866948
155	0x3eb8677d	0.36016455
156	0xbe9fdf7d	-0.31225196
157	0x3e9a1b37	0.30098888
158	0x3cb942a4	0.022614785
159	0xbdd55795	-0.104170956
160	0xbe120ef1	-0.14263512
161	0x3deee4c9	0.11664731
162	0xbe19d50b	-0.15022676
163	0xbc89a101	-0.016800405
164	0xbdd2d658	-0.10294789
165	0x3db64364	0.088995725
166	0xbddfb4ba	-0.10923143
167	0xbd40ad10	-0.047040045
168	0xbe0b424a	-0.13599506
169	0xbcf472f0	-0.029839963
170	0x3e2ad19a	0.16681519
171	0x3e312d98	0.17302549
172	0xbd996988	-0.074908316
173	0xbbc311c0	-0.0059530437
174	0xbc3a8c80	-0.011386037
175	0xbbce4400	-0.0062947273
176	0xbd718a16	-0.05896958
177	0x3caf511c	0.02140098
178	0x3ea446fa	0.320854
179	0x3e941b1d	0.28926936
180	0x3e57ec81	0.21086313
181	0xbeba137e	-0.36342996
182	0xbdd35f2b	-0.10320886
183	0xbe8489fb	-0.2588652
184	0x3d48ef96	0.049056612
185	0xbe5d4b5e	-0.21610782
186	0x3d705b15	0.058680613
187	0xbe5182bb	-0.20460026
188	0x3cac4e97	0.021033568
189	0x3c16feb9	0.009216004
190	0xbad60d5d	-0.0016330887
191	0xbe521226	-0.20514736
192	0x3dbb2592	0.09138025
193	0x3e547fce	0.20751879
194	0xbdf816f4	-0.12113753
195	0xbb66d283	-0.003522069
196	0xbd930c7d	-0.07180116
197	0xbe87637b	-0.26443085
198	0x3d4823c7	0.048862245
199	0xbd72d6c5	-0.05928685
200	0xbe5d4801	-0.21609499
201	0x3e18f96d	0.14938898
202	0x3d28f78e	0.04125171
203	0x3e3aece9	0.18254437
204	0xbd19823e	-0.037477724
205	0xbe4c15be	-0.19930169
206	0xbe493b9f	-0.1965165
207	0xbda95c80	-0.08269596
208	0xbe462555	-0.19350179
209	0xbe809df4	-0.2512051
210	0xbe1cf724	-0.15328652
211	0x3d683bb2	0.056697555
212	0xbdbd144f	-0.09232389
213	0xbe8ff3a9	-0.28115585
214	0x3e0570f8	0.13031375
215	0x3ea4a2a6	0.3215534
216	0xbd0af4ea	-0.033924975
217	0x3e1ee77a	0.15517989
218	0xbd63ad3a	-0.055585124
219	0x3e4f53ff	0.20246886
220	0x3dca3d25	0.09874944
221	0xbd2286c0	-0.03967929
222	0xbe3bbae8	-0.18333018
223	0x3e61f4c3	0.22066025
224	0xbea14ce8	-0.31503987
225	0xbcb269a8	-0.021778896
226	0x3e27d450	0.16389585
227	0xbea3a3de	-0.31960958
228	0x3e8e497e	0.27790445
229	0xbe1ee78d	-0.15518017
230	0xbe986b4b	-0.29769358
231	0x3efb0dff	0.49034116
232	0x3e95173f	0.29119298
233	0xbebd93f3	-0.3702694
234	0x3c95dd23	0.018293923
235	0x3cc0cfc7	0.023536576
236	0x3e101fac	0.14074582
237	0x3e2a06b0	0.16604114
238	0xbe3f8592	-0.18703297
239	0xbcfdb5d6	-0.030970495
240	0x3e44b7a7	0.19210683
241	0x3c927c23	0.017881459
242	0xbe7ca6c1	-0.24672987
243	0x3ed0b967	0.4076645
244	0xbe95c2e8	-0.29250264
245	0x3d4737ce	0.048637204
246	0x3c6363b1	0.013878749
247	0xbd7d0ea0	-0.061781526
248	0x3d33af95	0.04386862
249	0xbd8a7b93	-0.06761851
250	0x3e35e173	0.17761783
251	0x3e4eebd5	0.2020715
252	0x3d203034	0.03910847
253	0x3ecff377	0.40615436
254	0x3df90bb9	0.12160439
255	0xbe9b8eff	-0.30382535

linear1.bias f4 [256]
0	0xbd6a29d2	-0.05716879
1	0x3d823758	0.06358212
2	0x3eafee42	0.34361464
3	0xbe52e1c3	-0.20593934
4	0xbe2ff07f	-0.17181586
5	0x3e825b8e	0.25460476
6	0x3bfb7bda	0.0076746764
7	0x3e8aa183	0.2707635
8	0xbdd3944b	-0.10331019
9	0x3e6f2d5f	0.23357151
10	0xbe95154d	-0.29117814
11	0x3e178223	0.14795737
12	0xbd8aed48	-0.06783539
13	0x3ddabfe8	0.106811345
14	0x3e7fdbbf	0.2498617
15	0xbe90f079	-0.28308466
16	0x3e1dd51c	0.15413326
17	0xbdadcaaa	-0.08485921
18	0x3e261020	0.16217089
19	0xbe9e9c81	-0.30978778
20	0x3e34e5b2	0.17665747
21	0x3e4faf74	0.20281774
22	0x3e20e817	0.15713535
23	0x3e975f99	0.29565123
24	0xbdb8270b	-0.08991822
25	0x3e4534b4	0.19258386
26	0x3c63d5ff	0.013906001
27	0xbeaeef1e	-0.34166807
28	0x3e556c94	0.208422
29	0x3eb28809	0.34869412
30	0x3e5212b9	0.20514955
31	0x3de1ab12	0.11018957
32	0x3e49365f	0.19649647
33	0xbe0fe29a	-0.14051285
34	0x3e8d792c	0.2763151
35	0x3e30b4d2	0.17256477
36	0x3dbc003a	0.09179731
37	0x3dc92b1c	0.098226756
38	0xbdaa257d	-0.083079316
39	0xbd106c20	-0.035259366
40	0xbdb0b8aa	-0.08628972
41	0xbba73ecf	-0.005103923
42	0xbe823b1c	-0.25435722
43	0xbc8ea5a0	-0.01741296
44	0xbd795acf	-0.060877617
45	0x3d42449f	0.047428723
46	0x3e1a0c3b	0.15043728
47	0xbd7d649d	-0.06186353
48	0x3af6c7cd	0.0018827856
49	0x3d9b0d4d	0.07570896
50	0x3dba123d	0.0908551
51	0xbe8b54aa	-0.2721303
52	0x3e2eafb1	0.17059208
53	0x3dbbfa31	0.091785796
54	0x3ec9a031	0.3938003
55	0xbe1a1048	-0.15045273
56	0x3e7fab84	0.24967772
57	0xbe2bd40a	-0.16780105
58	0x3eeb734a	0.45986396
59	0x3d021f60	0.031768203
60	0xbae749c8	-0.001764589
61	0x3e575b75	0.21030982
62	0x3d61938d	0.055072356
63	0x3e7ac435	0.2448891
64	0xbc1ee06e	-0.009697063
65	0x3e238677	0.15969263
66	0xbe4817eb	-0.19540374
67	0xbe18e41e	-0.1493077
68	0xbdc008f1	-0.093767054
69	0xbe6a1562	-0.2285972
70	0x3d104482	0.035221584
71	0xbd791ab4	-0.06081648
72	0xbde7a71f	-0.11311173
73	0x3d98dd77	0.07464116
74	0x3dcc0da1	0.09963537
75	0xbe1fc92d	-0.15604086
76	0xbe5d2144	-0.21594721
77	0xbd921908	-0.071336806
78	0xbcd9c7be	-0.026584502
79	0x3cd68c3c	0.026189916
80	0xbe1a7a85	-0.150858
81	0x3d33e1e5	0.0439166
82	0x3d4401af	0.047853168
83	0xbd767eab	-0.060179394
84	0xbe04fba1	-0.12986614
85	0xbe8d3efe	-0.27587122
86	0xbe0686f3	-0.13137417
87	0x3cd68ebf	0.026191114
88	0x3e196ae8	0.14982188
89	0x3e867063	0.2625762
90	0xbe9f0d59	-0.3106487
91	0x3e7fa50f	0.24965309
92	0x3ebd0f67	0.36925814
93	0xbe901505	-0.28141037
94	0x3c127cb2	0.0089408625
95	0x3da223f6	0.07917015
96	0xbce92479	-0.028459774
97	0x3e8a5209	0.27015713
98	0x3e197639	0.14986505
99	0x3d78cebd	0.060744036
100	0xbd688055	-0.056763012
101	0x3cc0326f	0.023461549
102	0xbe3f90d1	-0.18707587
103	0x3e30f235	0.17279895
104	0x3dd7ae9b	0.1053135
105	0xbe31d7c6	-0.17367467
106	0x3e16812d	0.14697714
107	0xbe89d0e0	-0.2691717
108	0x3e0777e5	0.1322933
109	0x3dbe7775	0.09300128
110	0x3e8c5034	0.2740494
111	0xbe01ce9e	-0.12676474
112	0x3d47318c	0.048631236
113	0x3e8f5c89	0.28000286
114	0xbe86e079	-0.26343134
115	0x3e7a31f2	0.24433115
116	0xbcf46f10	-0.029838115
117	0x3e790d82	0.24321559
118	0xbe216c1c	-0.15763897
119	0x3e659024	0.22418267
120	0xbe1dc622	-0.15407613
121	0xbda212bc	-0.079137295
122	0x3d919205	0.07107929
123	0xbe8b33c6	-0.27187937
124	0x3e9ec190	0.3100705
125	0xbdc1c369	-0.094611
126	0x3e8884f8	0.26663947
127	0x3d2951dc	0.041337833
128	0xbde7419f	-0.11291813
129	0xbd56c2cd	-0.05243187
130	0x3e2a1a46	0.16611585
131	0x3e1ebd17	0.1550182
132	0x3e01f2c0	0.12690258
133	0x3ce8af28	0.028403834
134	0x3e4cc9bf	0.19998835
135	0x3d412244	0.04715182
136	0xbe321932	-0.17392424
137	0xbd50365b	-0.050833087
138	0x3e44c616	0.19216189
139	0x3deb5599	0.11490936
140	0xbe4dac11	-0.2008517
141	0xbdacdfac	-0.084410995
142	0xbe35632d	-0.17713614
143	0xbc142e4e	-0.009044243
144	0xbc30730e	-0.010769619
145	0x3dc72e63	0.097256444
146	0xbe208e59	-0.15679301
147	0xbdbc995d	-0.09208939
148	0x3d356a21	0.044290666
149	0xbe8796ab	-0.26482138
150	0xbd1b86ab	-0.037970226
151	0xbdd0b0bb	-0.10189959
152	0x3eb75d59	0.35813406
153	0xbe7e2893	-0.24820165
154	0xbe593423	-0.21211295
155	0xbe8eb505	-0.27872482
156	0xbd8d41fc	-0.06897351
157	0xbe8b1ac5	-0.2716886
158	0x3dcd2612	0.10017027
159	0x3ea0fc8d	0.3144268
160	0x3ebec8c9	0.37262562
161	0x3e3cd5d3	0.18440942
162	0x3ec37aea	0.38179713
163	0xbe41ba4a	-0.1891872
164	0x3d7d2e63	0.061811816
165	0xbde88835	-0.113541044
166	0x3d9ea70f	0.07746708
167	0xbe08e781	-0.13369562
168	0x3e755dd9	0.23961581
169	0xbe45aa53	-0.19303255
170	0xba389b47	-0.0007042181
171	0xbe8b27cd	-0.27178803
172	0x3e448b94	0.1919387
173	0x3e081a8f	0.13291381
174	0x3cf3a84f	0.029743342
175	0x3c20b0b6	0.009807756
176	0xbe53b989	-0.20676245
177	0x3eb99792	0.3624845
178	0x3deaceb8	0.1146521
179	0xbd09ecd1	-0.03367311
180	0x3d9e3a84	0.07726005
181	0xbcb3cfd4	-0.021949686
182	0x3dd67518	0.104715526
183	0xbe43f105	-0.1913491
184	0x3e9beca1	0.3045397
185	0xbb5fae88	-0.0034131128
186	0xbe768f9a	-0.24078217
187	0x3d011da3	0.031522404
188	0x3eaa2729	0.33233002
189	0x3e3f6943	0.18692498
190	0x3e6edbcb	0.23326032
191	0xbd70827b	-0.058718186
192	0xbe55d931	-0.20883633
193	0xbdc76e4a	-0.09737833
194	0x3ded70b3	0.11593761
195	0xbe86ac11	-0.2630315
196	0x3e8a96cf	0.27068183
197	0x3d630783	0.055427086
198	0x3e40d60e	0.18831655
199	0xbe8bfd8b	-0.27341875
200	0xbd2ecfc5	-0.042678613
201	0xbea79ae6	-0.32735366
202	0x3e5ae84d	0.21377678
203	0xbcb9982e	-0.022655573
204	0x3c579bb8	0.013159685
205	0xbe909d8e	-0.28245205
206	0x3a528040	0.0008029975
207	0x3dcc2c66	0.09969406
208	0x3e93b9be	0.28852648
209	0xbbe76fbc	-0.0070628803
210	0x3d394032	0.045227237
211	0x3df6a0b4	0.120423704
212	0xbe5f893b	-0.21829693
213	0xbe87df8a	-0.26537734
214	0xbd8e4e80	-0.069485664
215	0x3e3ea9fe	0.18619534
216	0x3e14d355	0.14533742
217	0x3c5bbf87	0.013412363
218	0x3eb72640	0.3577137
219	0xbe8477c3	-0.2587262
220	0xbdf51ab4	-0.11967984
221	0xbe8d0399	-0.27541807
222	0xbe66b13b	-0.22528546
223	0x3c0ff677	0.008786789
224	0x3d642ba1	0.05570567
225	0xbb929ba7	-0.0044741216
226	0x3d4f50b7	0.050614085
227	0xbe20b1bb	-0.15692799
228	0xbd798e09	-0.06092647
229	0x3e23c7f3	0.15994243
230	0x3d7abca9	0.061215077
231	0x3e0c2114	0.13684493
232	0x3d324621	0.04352391
233	0x3eb0ac30	0.3450637
234	0xbe7adb33	-0.2449768
235	0x3d90c861	0.07069469
236	0x3d362f0f	0.044478472
237	0xbdce0d6c	-0.10061154
238	0x3d7ae64f	0.061254796
239	0x3e080bb1	0.1328571
240	0xbea9ea05	-0.33186355
241	0x3e3dc7d2	0.18533257
242	0x3ecf8614	0.4053198
243	0x3d325740	0.04354024
244	0x3d2cfe62	0.042234786
245	0x3e347417	0.1762241
246	0x3d43a142	0.04776121
247	0xbe645806	-0.22299203
248	0x3e8c086f	0.27350184
249	0x3db60d61	0.088892706
250	0xbe78ba74	-0.24289876
251	0x3e81471c	0.25249565
252	0x3cffa128	0.031204775
253	0xbdad6c9b	-0.084679805
254	0x3de64dd6	0.11245315
255	0x3c81b63f	0.015833972

linear2.weight f4 [3, 256]
0	0x3dd24f18	0.10268992
1	0x3d28681a	0.041114904
2	0xbd16425b	-0.036684375
3	0xbc8ccdfa	-0.017188061
4	0xbde8b4f0	-0.11362636
5	0x3dacece6	0.08443622
6	0xbdaa1b0d	-0.08305941
7	0xbd6ccd6e	-0.0578131
8	0x3dfd0cb8	0.123559415
9	0xbd8bc215	-0.068241276
10	0x3d8a3066	0.067475125
11	0xbda35211	-0.07974637
12	0xbda6d2df	-0.08145689
13	0xbdc171b1	-0.09445513
14	0x3d23b6f2	0.039969392
15	0x3d14f422	0.036365636
16	0x3bb1508f	0.0054112147
17	0xbb3d679d	-0.002890087
18	0x3d06662b	0.03281228
19	0x3d949e01	0.07256699
20	0xbdbc2265	-0.09186248
21	0xbe086826	-0.1332098
22	0x3c497c32	0.012297677
23	0xbdd3ea29	-0.10347397
24	0xbd363da6	-0.044492386
25	0x3d95e75d	0.0731952
26	0xbd3ce648	-0.04611805
27	0xbc826bdb	-0.01592057
28	0xbd0d3e51	-0.034483258
29	0xbe16da77	-0.14731775
30	0xbda7d7e7	-0.08195477
31	0xbd8d9502	-0.069131866
32	0xbdb8e6b3	-0.090283774
33	0xbe2aeea6	-0.166926
34	0xbd5f70bc	-0.05455087
35	0x3d398cdc	0.04530035
36	0xbe282283	-0.16419415
37	0x3d8dff7a	0.06933494
38	0xbd72e462	-0.059299834
39	0xbe317787	-0.17330752
40	0x3d825d47	0.063654475
41	0x3cb7e81f	0.022449551
42	0x3ca7793c	0.020443551
43	0xbde706a8	-0.112805665
44	0x3d9c9377	0.07645314
45	0xbe0cd5e5	-0.1375347
46	0xbdb22d81	-0.087000854
47	0xbe161f1c	-0.14660305
48	0x3e2d0e40	0.16899967
49	0xbe09825b	-0.13428633
50	0xbe23587b	-0.15951721
51	0xbc132470	-0.008980855
52	0xbd161b06	-0.036646865
53	0xbdde4567	-0.10853081
54	0xbdf8857b	-0.121348344
55	0xbcbb57f8	-0.022869095
56	0xbdc253c5	-0.09488634
57	0xbe2efffe	-0.17089841
58	0xbda0926f	-0.0784043
59	0xbcfa2808	-0.030536667
60	0x3cc77b88	0.024350896
61	0x3dd1ec63	0.10250165
62	0x3c60e83e	0.013727246
63	0xbd4b6e9c	-0.049666032
64	0x3e081a27	0.13291226
65	0x3d944d67	0.07241326
66	0xbe1deacc	-0.15421599
67	0x3bb0a938	0.005391266
68	0xbd93083e	-0.071793064
69	0xbd9f81f7	-0.07788461
70	0xbc841d8e	-0.016127374
71	0x3d2b9996	0.041894518
72	0xbcc00c98	-0.023443505
73	0x3e1a9234	0.15094835
74	0x3e31cce0	0.1736331
75	0x3b9b5445	0.0047402703
76	0xbce89cc1	-0.028395059
77	0xbd2d715a	-0.04234443
78	0xbdc41959	-0.09575147
79	0xbe0053d7	-0.12531982
80	0xbe1643e4	-0.14674336
81	0xbdfe81ca	-0.12427099
82	0xbd9a0564	-0.075205594
83	0x3cc7e315	0.024400273
84	0xbdea0718	-0.11427134
85	0x3cfd4da4	0.030920811
86	0xbe0a56e9	-0.13509716
87	0xbd2f70d3	-0.042832207
88	0xbdee8bd1	-0.116477616
89	0x3d92daea	0.07170661
90	0xbd0fd9f7	-0.035119977
91	0xbe0d2ae4	-0.13785893
92	0x3d9d51b8	0.07681602
93	0x3c3023bc	0.010750707
94	0x3d97eaf2	0.07417859
95	0x3dc96333	0.09833374
96	0xbd13f467	-0.036121752
97	0xbd2e7876	-0.04259535
98	0xbd9c806c	-0.07641682
99	0xbcedba8c	-0.029019617
100	0x3dcf411b	0.1011984
101	0x3d55c934	0.052193835
102	0xbd23c3b8	-0.039981574
103	0xbdc8cd23	-0.09804752
104	0xbe19136a	-0.14948812
105	0x3db241c0	0.08703947
106	0xbd0b2525	-0.03397097
107	0xbb510d11	-0.0031898657
108	0xbd8ac296	-0.067753956
109	0x3b62b13a	0.0034590499
110	0xbdab9b86	-0.08379273
111	0xbe1759a2	-0.14780286
112	0xbd9421e1	-0.072330244
113	0x3d5d10a3	0.053970944
114	0x3ca9946b	0.020700654
115	0x3db28993	0.087176464
116	0xbdd14bd2	-0.1021954
117	0xbd906f44	-0.07052472
118	0x3d45b80c	0.048271224
119	0xbdb80b31	-0.089865096
120	0xbdd7f984	-0.10545638
121	0xbe0f83f6	-0.14015183
122	0xbce8d5a1	-0.028422179
123	0xbdbf65f0	-0.09345615
124	0xbddd99c4	-0.10820344
125	0xbc8c029b	-0.017091086
126	0xba81a3ca	-0.0009890732
127	0x3c99aac1	0.01875818
128	0xbb891ace	-0.0041841036
129	0xbda1672c	-0.078810066
130	0xbdcc104b	-0.09964045
131	0xbe0b8e13	-0.13628416
132	0xbcf3476b	-0.02969714
133	0xbdf8400a	-0.121215895
134	0x3d256e43	0.040388357
135	0x3ba98487	0.005173269
136	0x3dc7c55e	0.09754442
137	0xbda57912	-0.08079733
138	0xbc98d493	-0.01865605
139	0xbe065ca7	-0.13121282
140	0xbe38e62b	-0.18056552
141	0xbde7e537	-0.11323016
142	0x3b9e5395	0.004831741
143	0xbd06b004	-0.032882705
144	0x3db2f886	0.08738808
145	0xbce55497	-0.027994437
146	0xbe04e742	-0.12978843
147	0xbcaf539f	-0.021402178
148	0x3c8916f0	0.01673457
149	0x3c537053	0.012905198
150	0x3b94ea7f	0.0045445557
151	0xbe1537c0	-0.14572048
152	0xbd64aa74	-0.05582662
153	0x3d86de13	0.06585326
154	0x3ce8015b	0.028320959
155	0xbd90ce74	-0.07070628
156	0xbbc7e183	-0.006099881
157	0x3dac6b1b	0.08418866
158	0x3da49417	0.080360584
159	0xbe0eb676	-0.13936791
160	0x3e8548c1	0.2603207
161	0xbe1b82fa	-0.15186682
162	0xbdc91e9d	-0.09820292
163	0xbd6640a4	-0.05621399
164	0xbe116476	-0.14198479
165	0xba52fe37	-0.0008048745
166	0xbddf986f	-0.10917746
167	0xbdee7997	-0.11644285
168	0xbe1cef44	-0.15325648
169	0xbe113241	-0.14179327
170	0x3d734992	0.059396334
171	0x3dc9eee9	0.098600216
172	0x3d80f240	0.062962055
173	0xbd3e1c2d	-0.04641359
174	0x3dd5e781	0.104445465
175	0x3d4dcbd0	0.0502432
176	0x3cdd77f1	0.027034732
177	0xbd18ee1c	-0.037336454
178	0x3cb18f1f	0.02167469
179	0xbe1dfa4f	-0.15427516
180	0xbe2bed11	-0.16789652
181	0xbe131a2e	-0.14365456
182	0x3e115f8f	0.14196609
183	0xbb004d60	-0.001957737
184	0xbcba706f	-0.02275869
185	0x3d15275f	0.0364145
186	0xbc258539	-0.010102564
187	0x3da91e32	0.082577124
188	0x3d068987	0.032846
189	0xbda1db27	-0.07903128
190	0xbd8ea5af	-0.069651954
191	0xbe144f7d	-0.14483447
192	0xbd271ad0	-0.040797055
193	0xbddff6f9	-0.10935778
194	0x3de1eb06	0.11031155
195	0x3cfd1c70	0.03089735
196	0xbc4678f8	-0.012113802
197	0x3c880995	0.016606132
198	0xbc4038d2	-0.011732297
199	0x3bc83734	0.0061100964
200	0xbcaac224	-0.020844527
201	0xbd4abb65	-0.04949512
202	0xbdc36eec	-0.09542641
203	0xbc749fd1	-0.014930681
204	0xbdf89af6	-0.121389315
205	0xbc3c88c1	-0.011507214
206	0xbd9cd1cd	-0.07657204
207	0x3dc77d7d	0.09740732
208	0xbd57fcee	-0.052731447
209	0xbdb8f8cf	-0.090318315
210	0x3c9c5e6d	0.019087994
211	0xbd8b8c31	-0.06813849
212	0xbdcd171c	-0.100141734
213	0xbdb9e50f	-0.090768926
214	0xbc6a8a39	-0.014315181
215	0xbe25f458	-0.16206491
216	0x3ca51808	0.02015306
217	0xbe01daf2	-0.12681177
218	0xbdc2f6ae	-0.09519707
219	0x3d1f704c	0.038925454
220	0xbc8e6fa4	-0.017387219
221	0xbc9d4218	-0.019196555
222	0xbd9c6441	-0.076363094
223	0x3d8e6664	0.06953123
224	0x3d1b7552	0.037953682
225	0xbd6cb4fe	-0.057789795
226	0xbd67ae14	-0.0565625
227	0xbd8d09c1	-0.06886626
228	0xbda3b6a6	-0.07993822
229	0xbd91b3f8	-0.071144044
230	0x3d2a29ff	0.041543957
231	0xb8eabe20	-0.00011193403
232	0xbe00bf5e	-0.12573001
233	0xbdc57a21	-0.09642435
234	0xbe192bbe	-0.14958093
235	0xbdfe9109	-0.12430007
236	0xbcfcdd12	-0.030867133
237	0xbd215734	-0.039389804
238	0xbccd4958	-0.025059387
239	0xbb90743e	-0.0044083884
240	0xbbb81172	-0.005617314
241	0x3c6df94e	0.014524771
242	0xbcc7f6d2	-0.024409685
243	0x3dd6b51f	0.10483765
244	0x3d71667e	0.058935635
245	0x3d5a6bfe	0.053325646
246	0xbd211543	-0.039326917
247	0xbb8cd627	-0.00429799
248	0x3d6a3b5f	0.057185527
249	0xbdf1f4b0	-0.118142486
250	0xbd49f913	-0.0493098
251	0xbdedc102	-0.11609079
252	0xbe3c4e72	-0.183893
253	0xbd3b6e26	-0.045759343
254	0x3c771e53	0.015082913
255	0xbc6018d5	-0.013677795

linear2.bias f4 [3]
0	0x3b584723	0.0033001385
1	0xbd5e2b6c	-0.05424063
2	0xbe062485	-0.13099869
